NN/checkpoints/2026-02-24_14-21-28/best.pt (torch, 167025 bytes, 36 tensors)

encoder.mlp.0.weight f4 [75, 3]
0	0xbea31b7e	-0.31856912
1	0x3e3947b0	0.18093753
2	0xbe0ec48b	-0.13942163
3	0x3ee3f356	0.44521588
4	0x3ee81bcc	0.45333707
5	0xbac973de	-0.0015369614
6	0xbe652983	-0.22379117
7	0xbea6ac99	-0.32553557
8	0xbd9c7b44	-0.076406986
9	0xbe3ce352	-0.18446091
10	0x3e75c509	0.24000944
11	0xbf056d99	-0.5212036
12	0x3f0ae3db	0.5425393
13	0xbed98ead	-0.42491665
14	0x3ef8156d	0.48453847
15	0xbdf741ee	-0.12073122
16	0x3e83463c	0.25639522
17	0x3e84cd6c	0.25937974
18	0x3d62e8e1	0.055397872
19	0x3dfe0b5e	0.12404512
20	0x3eecbddb	0.46238598
21	0x3e246b2c	0.16056508
22	0x3eada63f	0.33915898
23	0xbf0e28dd	-0.555311
24	0x3ee5c22a	0.44874698
25	0x3e7068b4	0.23477441
26	0x3e336801	0.17520143
27	0x3dbb36b3	0.091412924
28	0x3e94dfe8	0.29077077
29	0x3f17e6db	0.5933663
30	0xbe038d90	-0.1284697
31	0xbea4aec6	-0.32164592
32	0xbe14bec2	-0.14525893
33	0xbeb42a59	-0.3518856
34	0x3e8e330c	0.2777332
35	0xbe92195b	-0.2853497
36	0xbe90d011	-0.28283742
37	0x3f05afc5	0.5222133
38	0x3f0e7171	0.5564185
39	0x3d87fe88	0.06640345
40	0xbdccbff8	-0.09997553
41	0xbd98a1b0	-0.074527144
42	0x3e9db4ab	0.308019
43	0xbefaa6c9	-0.48955372
44	0xbef216b8	-0.47282958
45	0x3ef98dfe	0.48741144
46	0x3f1921dc	0.5981729
47	0x3bbe66b8	0.005810585
48	0xbee9925d	-0.4561948
49	0x3c813aa0	0.015775025
50	0xbe89853b	-0.2685946
51	0x3c2f379c	0.010694411
52	0x3e9e0154	0.30860388
53	0x3e98a6b5	0.29814687
54	0xbd54235c	-0.051791534
55	0x3dab4b6f	0.08363997
56	0x3e2bb6cd	0.16768952
57	0xbeb3d192	-0.35120827
58	0xbd997ab5	-0.07494108
59	0x3e287a08	0.16452801
60	0xbea8ac8a	-0.32944137
61	0xbe8119a1	-0.25214866
62	0x3e4692b8	0.19391906
63	0x3eaa20ca	0.3322814
64	0x3c048a80	0.008089662
65	0xbe65f868	-0.2245804
66	0x3eb45b0a	0.35225707
67	0xbe8b54a0	-0.27213
68	0xbe3a514d	-0.18195076
69	0x3f1189cf	0.56850904
70	0x3e03e32d	0.1287963
71	0x3d88d747	0.06681686
72	0x3e4b3747	0.19845305
73	0xbe0cbf1d	-0.13744779
74	0x3f0c6091	0.5483485
75	0xbedf6a7f	-0.43635938
76	0xbdf70204	-0.12060931
77	0xbd72c515	-0.059269983
78	0xbe9a95ce	-0.30192417
79	0xbe303c8e	-0.172106
80	0x3ed90463	0.4238616
81	0x3eb90452	0.3613611
82	0x3d862fd0	0.06552088
83	0x3f0d1561	0.55110747
84	0xbed0b601	-0.40763858
85	0xbeb04496	-0.34427327
86	0x3e858ef4	0.26085627
87	0xbcfe37e0	-0.031032503
88	0xbf06b0a2	-0.5261327
89	0xbecc9ade	-0.39961904
90	0xbec254cf	-0.3795533
91	0x3ede99e3	0.4347678
92	0x3e9801a5	0.29688755
93	0x3ee4ae70	0.44664335
94	0xbedc12fa	-0.42983228
95	0xbf1019ff	-0.56289667
96	0xbec1d91d	-0.37860957
97	0x3d7cfe20	0.06176579
98	0xbde98904	-0.11403087
99	0xbeb6a686	-0.35673922
100	0x3ee18b29	0.44051483
101	0xbe2046cf	-0.15652011
102	0xbea3b410	-0.31973314
103	0x3e922ea7	0.28551218
104	0xbe1929ab	-0.14957301
105	0x3eca7ad4	0.39546835
106	0x3e1cc5b8	0.15309799
107	0x3c776035	0.015098621
108	0x3df838a8	0.12120181
109	0xbede1f26	-0.4338314
110	0xbe9e2a0b	-0.3089145
111	0xbe8aee7b	-0.2713507
112	0xbea743ec	-0.32669008
113	0x3dd1ab98	0.10237807
114	0x3e09348b	0.1339895
115	0xbe74f045	-0.2391978
116	0x3ed113de	0.4083547
117	0xbea47909	-0.32123592
118	0x3deeb7e8	0.11656171
119	0xbe28d112	-0.16486004
120	0xbf00350d	-0.5008095
121	0xbec07b42	-0.37594038
122	0x3e717ebc	0.23583502
123	0x3e69f4c8	0.22847283
124	0xbeb6c997	-0.35700676
125	0xbe385b9a	-0.18003693
126	0xbf12844e	-0.5723313
127	0x3e8d8712	0.27642113
128	0x3f0b414d	0.54396516
129	0x3e4156c8	0.1888076
130	0xbeb6e77a	-0.35723478
131	0x3e9beb3a	0.304529
132	0x3ef55124	0.47913468
133	0xbdf1e77c	-0.1181173
134	0xbdc1d3b0	-0.09464204
135	0x3e4ca0ac	0.19983166
136	0x3d981d90	0.074275136
137	0xbe436690	-0.19082093
138	0xbf0936ca	-0.53599226
139	0xbecf46d8	-0.40483737
140	0x3d0010d0	0.031266034
141	0xbd34cfed	-0.044143606
142	0x3ef1601e	0.47143644
143	0x3d86ead4	0.06587759
144	0xbe0280a8	-0.12744391
145	0xbf0f024f	-0.558629
146	0xbf1db9b2	-0.61611474
147	0x3e84b6be	0.2592067
148	0x3f080c44	0.53143716
149	0x3cbf3565	0.02334089
150	0xbf016272	-0.5054084
151	0x3e5f827b	0.21827118
152	0x3f04dbb5	0.51897746
153	0xbec3a563	-0.38212118
154	0xbe1ba7c6	-0.15200719
155	0x3d46e400	0.04855728
156	0xbea89490	-0.32925844
157	0xbf090c4a	-0.53534377
158	0x3e816898	0.2527511
159	0xbef290e8	-0.4737618
160	0xbe1465b8	-0.14491928
161	0xbe9cf5dd	-0.3065633
162	0x3eebd0fb	0.46057877
163	0x3e0b1f7e	0.13586232
164	0x3e9a5fa2	0.30151087
165	0xbec82c66	-0.39096373
166	0x3ef91b94	0.48653853
167	0x3d52b4d0	0.051441967
168	0xbea3f3ad	-0.32021847
169	0xbd1ab330	-0.037768543
170	0xbed14dbb	-0.40879616
171	0xbc72da9d	-0.014822629
172	0x3eb5b453	0.3548914
173	0xbe82fbbb	-0.2558268
174	0x3f06ec40	0.5270424
175	0x3e54bb23	0.20774512
176	0xbdd0d5b1	-0.101970084
177	0x3e38ae24	0.1803518
178	0xbdd9d490	-0.10636246
179	0xbe0967ea	-0.13418546
180	0xbe920805	-0.28521743
181	0x3ecdba54	0.4018122
182	0x3ef76c57	0.48324844
183	0x3e71061b	0.23537485
184	0x3ec2e361	0.380641
185	0x3f1dc895	0.6163419
186	0x3f20e540	0.6284981
187	0xbf06e5c6	-0.52694356
188	0x3da74e74	0.081692606
189	0xbca8bb6c	-0.020597182
190	0x3e696ce4	0.22795445
191	0xbdaeb206	-0.08530049
192	0x3e2ece76	0.17070946
193	0xbf08da87	-0.53458446
194	0x3ea88069	0.3291047
195	0x3f0dff78	0.5546794
196	0xbdd4a4fc	-0.10383031
197	0xbeeb2174	-0.4592396
198	0xbef45e01	-0.4772797
199	0xbdc05d02	-0.0939274
200	0x3caf5a75	0.021405438
201	0x3e336ef9	0.17522801
202	0x3e296404	0.16542059
203	0x3f05ca26	0.5226158
204	0xbdaabc9d	-0.083367564
205	0x3e421ad3	0.18955545
206	0xbe931d61	-0.28733352
207	0x3f184a27	0.5948815
208	0x3e797f1f	0.24364899
209	0xbd53862e	-0.051641636
210	0x3eca5662	0.3951903
211	0x3e5c3f65	0.21508558
212	0x3e045855	0.12924321
213	0xbe2e86b4	-0.17043573
214	0x3d94ae00	0.0725975
215	0x3d291260	0.04127729
216	0xbeb8fa7f	-0.36128613
217	0x3c432a0e	0.011911882
218	0x3e2c814f	0.16846202
219	0xbeaf16c7	-0.34197065
220	0x3dd335d0	0.10312998
221	0xbe443d3c	-0.19163984
222	0xbef5ee52	-0.48033386
223	0xbeb10896	-0.34576863
224	0xbeea9b4b	-0.45821604

encoder.mlp.0.bias f4 [75]
0	0x3e28cf4e	0.1648533
1	0x3ec00f0c	0.3751148
2	0x3f0d6bc3	0.55242556
3	0x3f116f41	0.56810385
4	0x3e7a058f	0.24416183
5	0x3e8a1cd1	0.2697511
6	0xbd8bbf91	-0.06823648
7	0x3ef773f1	0.48330644
8	0xbe3ead11	-0.18620707
9	0xbe056b4c	-0.13029212
10	0xbe44c290	-0.19214845
11	0xbec628a3	-0.38702878
12	0xbed9eb5f	-0.42562386
13	0xbdf10994	-0.11769405
14	0x3efda204	0.4953767
15	0xbe86408a	-0.26221114
16	0xbf062ec1	-0.5241509
17	0xbdc1c5d6	-0.09461562
18	0x3f0b9a3a	0.54532206
19	0x3e768557	0.24074303
20	0xbd157b70	-0.036494672
21	0xbe2900ca	-0.16504207
22	0x3f07b949	0.530171
23	0xbf091ee3	-0.53562754
24	0x3eb57715	0.35442415
25	0x3e527e6a	0.20556036
26	0x3eb44f3c	0.352167
27	0xbe8bbcd7	-0.2729251
28	0xbe41d864	-0.18930203
29	0xbe7874f6	-0.24263367
30	0x3f0e5688	0.55600786
31	0xbd98ae08	-0.07455069
32	0xbf0cef8e	-0.5505303
33	0x3ea28996	0.31745595
34	0x3e1e4639	0.15456475
35	0x3dad3221	0.08456827
36	0xbec51f94	-0.38500655
37	0xbf0a74e2	-0.540846
38	0x3f0f6de4	0.56027055
39	0xbedea1b8	-0.43482757
40	0xbde0af9c	-0.10970995
41	0xbdd8b6bc	-0.10581729
42	0x3ea1793d	0.3153781
43	0xbef934ae	-0.48673004
44	0xbea930ba	-0.33044988
45	0xbe9e691a	-0.3093956
46	0xbe950c9c	-0.29111183
47	0x3eb64929	0.35602692
48	0x3ecb009b	0.396489
49	0x3e8e0ece	0.2774567
50	0x3f0097c7	0.50231594
51	0xbec498dc	-0.38397872
52	0xbb164000	-0.002292633
53	0xbeef37cc	-0.46722257
54	0x3cd220f0	0.025650471
55	0xbefca5d8	-0.4934528
56	0xbf0e5b83	-0.55608386
57	0x3ec7cee0	0.3902502
58	0xbe6b12f6	-0.22956452
59	0xbd3c6bc0	-0.046001196
60	0xbd028f8f	-0.03187519
61	0xbed5aafa	-0.41732007
62	0xbd0ec040	-0.034851313
63	0x3dc91b84	0.09819701
64	0x3efd6af9	0.49495676
65	0xbe7b7e50	-0.24559903
66	0x3f12b2aa	0.5730387
67	0xbe152cd6	-0.14567885
68	0x3ec9741d	0.393464
69	0x3f0779de	0.5292033
70	0x3dabf433	0.08396187
71	0xbe4b0bd6	-0.19828734
72	0x3ee2643a	0.44217092
73	0xbe2c73d0	-0.16841054
74	0xbe7d1918	-0.24716604

encoder.mlp.2.weight f4 [75, 75]
0	0xbd24e19e	-0.040254228
1	0xbdc0dfed	-0.094177105
2	0xbc3d0b30	-0.011538312
3	0xbdc0632c	-0.093939155
4	0x3d9adf06	0.075620696
5	0xbde3c2b8	-0.11121124
6	0xbdafb036	-0.085785314
7	0x3cbb8650	0.022891194
8	0x3d924bdc	0.07143375
9	0x3de22e76	0.11044018
10	0xbdbfa852	-0.093582764
11	0x3dc243d4	0.094855934
12	0x3da5b394	0.080908924
13	0xbd9b2308	-0.07575041
14	0x3d452f84	0.048141018
15	0xbd050b8e	-0.032481723
16	0x3d082458	0.033237785
17	0xbdd15a4b	-0.102223
18	0xbd87c850	-0.066300035
19	0xbd95ec8e	-0.0732051
20	0xbcb878d4	-0.022518553
21	0xbb89a5c0	-0.004200667
22	0xbb22d7c0	-0.0024847835
23	0xbd8bb356	-0.06821315
24	0x3d6999e0	0.057031512
25	0x3d70436c	0.05865805
26	0xbdcf7291	-0.10129274
27	0xbddb3350	-0.107031465
28	0xbccb43e4	-0.024812646
29	0x3d039170	0.032121122
30	0xbdb41e16	-0.08794801
31	0xbc2e3748	-0.010633297
32	0x3bd6bea0	0.006553486
33	0xbdb4b298	-0.088231266
34	0x3ddd72da	0.10812922
35	0x3dab4620	0.08362985
36	0x3db4a04e	0.08819638
37	0xbd40dccc	-0.04708557
38	0xbda90474	-0.082528025
39	0x3c684c60	0.0141783655
40	0x3d8a51f0	0.067539096
41	0x3d675f34	0.056487277
42	0xbd996b4a	-0.07491167
43	0x3db9a5de	0.0906484
44	0xbd603964	-0.054742232
45	0xbca55f28	-0.020186976
46	0xbd049d10	-0.03237635
47	0x3d612df8	0.05497548
48	0xbddca56b	-0.107737385
49	0xbd969578	-0.07352728
50	0xbc64eba8	-0.0139722
51	0x3da2c892	0.07948412
52	0xbce3c200	-0.027802467
53	0x3d945fdc	0.07244846
54	0x3dd890f8	0.105745256
55	0x3b8e3140	0.004339367
56	0xbd9f4766	-0.0777729
57	0x3a286600	0.00064238906
58	0x3d38062c	0.04492776
59	0xbcc97420	-0.024591506
60	0xbde6e4b3	-0.1127409
61	0x3d8cbd9e	0.06872104
62	0xbd4e1da8	-0.05032125
63	0xbda56670	-0.08076179
64	0x3d710ae4	0.058848277
65	0x3ce3b060	0.027794063
66	0x3dac4bc6	0.0841289
67	0xbcbf0660	-0.02331847
68	0x3d923b26	0.07140188
69	0xbce09b70	-0.027417868
70	0xbd92d42a	-0.07169373
71	0x3dda4ebe	0.1065955
72	0x3de8ad66	0.11361198
73	0x3da8889c	0.08229181
74	0xbd04025c	-0.032228813
75	0xbd4e5bd6	-0.05038055
76	0x3ca73ae0	0.020413816
77	0x3d6e1a0c	0.05813031
78	0x3c716710	0.014734045
79	0x3d4724c8	0.04861906
80	0xbbb4b0f0	-0.0055142567
81	0x3d862174	0.065493494
82	0x3d605fb0	0.054778755
83	0x3d86b374	0.06577197
84	0xbc0da5f0	-0.00864552
85	0xbdc2a081	-0.0950327
86	0xbd945160	-0.072420835
87	0xbd6c0e3e	-0.05763077
88	0x3dc7fea0	0.09765363
89	0xbbbec880	-0.0058222413
90	0xbc7e1190	-0.015507117
91	0xbd3881d8	-0.045045704
92	0xbb9ee270	-0.004848771
93	0x3d9f654e	0.07782994
94	0x37d70000	2.5629997e-05
95	0x3d5b97e4	0.05361165
96	0x3d876c04	0.06612399
97	0xbde65297	-0.112462215
98	0x3d2567f0	0.040382326
99	0x3dec499c	0.115374774
100	0xbd6fa9a8	-0.058511406
101	0x3c99b2c8	0.018762007
102	0x3b2a2fc0	0.0025968403
103	0x3d79ff98	0.06103477
104	0x3ce3e740	0.02782023
105	0xbdb1aab7	-0.086751394
106	0xbdb0a4c2	-0.08625175
107	0x3dc9ec2c	0.09859499
108	0xbd4bdb80	-0.04976988
109	0xbdcfd89f	-0.10148739
110	0xbdd43b3c	-0.103628606
111	0xbdcdbd29	-0.10045845
112	0x3cd7fa80	0.026364565
113	0x3c5ab430	0.013348624
114	0xbd8947ac	-0.067031235
115	0xbcd5b134	-0.026085474
116	0x3c93dfd8	0.018051073
117	0x3d2c4984	0.042062297
118	0x3d41199c	0.047143564
119	0xbd7e9b7b	-0.062159996
120	0x3dded724	0.108808786
121	0x3ddce9ee	0.10786806
122	0xbda7f160	-0.082003355
123	0x3ddb3264	0.107029706
124	0xbdc1bb44	-0.09459546
125	0xbd9c14cf	-0.076211564
126	0x3cbac230	0.022797674
127	0x3d0ab5e4	0.03386487
128	0x3dd247d6	0.10267608
129	0x3a185e00	0.0005812347
130	0x3d9fb7d0	0.07798731
131	0xbd1da8d0	-0.03849107
132	0xbdac51ed	-0.084140636
133	0xbc37f0c0	-0.011226833
134	0x3d758a7c	0.059946522
135	0xbd38c59e	-0.045110337
136	0xbdc82bf8	-0.097740114
137	0xbd900d4a	-0.07033785
138	0x3ca791c0	0.020455241
139	0x3de17f52	0.110106125
140	0x3bd12c90	0.006383486
141	0xbdbea294	-0.09308353
142	0xbd53bdc8	-0.05169466
143	0x3d7008d8	0.058602184
144	0xbd14da04	-0.03634073
145	0xbc7f5c08	-0.015585907
146	0x3dafed5a	0.08590193
147	0x3d2dd918	0.042443365
148	0x3d90c588	0.07068926
149	0x3dd44df6	0.10366432
150	0xbd498807	-0.04920199
151	0x3bcccf74	0.0062503163
152	0xbdc736a3	-0.09727218
153	0x3dd59dc4	0.10430482
154	0xbdb404ee	-0.08790003
155	0x3dcb6d9e	0.09933017
156	0x3dc25afa	0.09490009
157	0x3c702051	0.014656142
158	0xbde190fc	-0.11013982
159	0xbc6b4742	-0.014360251
160	0xbd42ec4c	-0.04758863
161	0x3d10fd58	0.035397857
162	0x3d690961	0.05689371
163	0x3d83b332	0.06430663
164	0x3cd83196	0.026390832
165	0xbdcb04d9	-0.09913034
166	0xbdc6e922	-0.09712435
167	0x3cc7530c	0.024331592
168	0xbd131de5	-0.03591718
169	0x3d2fdc84	0.04293491
170	0x3de5d774	0.11222735
171	0x3d0ed2b4	0.03486891
172	0xbda4081d	-0.0800936
173	0xbd3229b1	-0.04349679
174	0x3d784831	0.060615722
175	0x3b2377d9	0.002494326
176	0x3d8bf176	0.068331644
177	0xbdf7f576	-0.12107365
178	0xbc691e28	-0.014228381
179	0xbd66a86d	-0.056312967
180	0x3d9e4378	0.077277124
181	0x3d4ee134	0.05050774
182	0xbc7da5d8	-0.015481435
183	0xbdf15eaf	-0.117856376
184	0xbcc9e487	-0.024645103
185	0x3daa635a	0.08319731
186	0xbb4aadc0	-0.0030926317
187	0xbb9cb5c0	-0.0047824085
188	0xbdf061a4	-0.117373735
189	0x3dbb39da	0.09141894
190	0x3dc3aaea	0.09554084
191	0xbdbe031c	-0.09277937
192	0xbdbd0a6e	-0.09230505
193	0x3bb75540	0.0055948794
194	0xbd875122	-0.06607272
195	0xbdc18020	-0.09448266
196	0x3d146d6c	0.036237165
197	0xbd257521	-0.040394906
198	0x3cf1231c	0.029435687
199	0x3d109f59	0.035308216
200	0x3dbcd752	0.092207566
201	0x3d8c80f0	0.068605304
202	0xbdde4e3b	-0.10854765
203	0xbdbe9459	-0.09305639
204	0x3da7cadb	0.081929885
205	0xbdc8ee3a	-0.09811063
206	0x3d908ac0	0.070577145
207	0xbda5e17b	-0.080996476
208	0x3da7b5a8	0.08188945
209	0x3d85bdae	0.06530319
210	0xbdb83fc2	-0.08996536
211	0xbdd7165b	-0.10502311
212	0xbd7817df	-0.06056964
213	0xbd815649	-0.06315286
214	0xbd9bf487	-0.07614999
215	0x3da6a594	0.0813705
216	0x3c90e44f	0.017686991
217	0xbcbf8e47	-0.023383273
218	0xbc979173	-0.018501973
219	0x3d19886c	0.037483618
220	0x3a9f09a5	0.0012133612
221	0xbc6a3f78	-0.014297359
222	0x3dbc88b8	0.092057645
223	0x3da3300e	0.0796815
224	0x3c04a808	0.008096702
225	0x3e1a2a84	0.15055281
226	0xbcb676c3	-0.022273427
227	0xbd820329	-0.06348259
228	0x3dafa55f	0.08576464
229	0x3d851ab1	0.064992316
230	0x3cb67657	0.022273226
231	0xbe02c8b5	-0.12771876
232	0x3dc4e073	0.09613123
233	0xbb9a9ae9	-0.0047181738
234	0xbdae223e	-0.08502625
235	0xbdd0a268	-0.101872265
236	0xbd7599fa	-0.059961297
237	0x3e08c14f	0.13354991
238	0x3d6a95b4	0.057271674
239	0xbcd80d8c	-0.026373647
240	0x3dc01262	0.09378506
241	0x3dca90d6	0.098909065
242	0x3d832ae8	0.06404668
243	0xba3e2c8c	-0.0007254563
244	0x3e3abeaa	0.18236795
245	0xbcd601d4	-0.026123919
246	0xbd45540a	-0.04817585
247	0x3d8c9655	0.06864611
248	0xbe1c57f1	-0.15267922
249	0x3db25121	0.0870688
250	0x3d9fee12	0.0780908
251	0x3d542f0c	0.05180268
252	0xbd97c8c6	-0.07411341
253	0xbd9d9136	-0.076937124
254	0x3bbfcd00	0.0058532953
255	0x3dc9c880	0.098526955

encoder.mlp.2.bias f4 [75]
0	0xbdca6c2a	-0.09883912
1	0xbce6ec58	-0.02818887
2	0xbc64a14a	-0.01395447
3	0x3d94ea35	0.07271234
4	0x3e04b29b	0.12958758
5	0xbe0e6b0c	-0.13908023
6	0x3d75cc5e	0.060009353
7	0x3c8d75a3	0.017268008
8	0xbd6a6c79	-0.057232354
9	0xbd883167	-0.06650048
10	0xbdb38ec8	-0.08767468
11	0x3da20868	0.079117596
12	0x3d166376	0.036715947
13	0x3a79fa80	0.00095359236
14	0xbcfca8a2	-0.03084213
15	0x3dc5b263	0.09653165
16	0xbcafb888	-0.021450296
17	0xbd955663	-0.072918676
18	0x3dfabb90	0.12242806
19	0x3d848faa	0.06472714
20	0x3da8f8f7	0.08250611
21	0xbd8bd92a	-0.0682853
22	0xbda2b035	-0.07943765
23	0x3c8a7d98	0.01690559
24	0xbd0840e8	-0.033265024
25	0x3da08446	0.07837729
26	0x3d9fba2f	0.077991836
27	0x3d21ae34	0.039472774
28	0xbca1d9cc	-0.019757174
29	0x3ce30ae1	0.027715148
30	0x3dce00ea	0.10058768
31	0xbd8b7b83	-0.06810667
32	0x3d447f00	0.04797268
33	0x3d8b8854	0.06813112
34	0xbdb24d48	-0.087061465
35	0x3d870e85	0.06594566
36	0xbda0d6c0	-0.0785346
37	0xbdc81684	-0.097699195
38	0x3d14f7a9	0.036369
39	0xbd0f0992	-0.034921236
40	0x3d85c919	0.06532497
41	0x3cd24921	0.025669636
42	0xbc2284aa	-0.009919325
43	0x3deb1c38	0.11479992
44	0x3db6653d	0.089060284
45	0xbd2a8776	-0.041633092
46	0xbd886eee	-0.06661783
47	0x3d9e62a3	0.07733657
48	0xbdb22670	-0.086987376
49	0xbd5de2bc	-0.05417131
50	0xbce89794	-0.02839259
51	0x3d8688ad	0.065690376
52	0xbb1bd8a4	-0.002378025
53	0xbd5c1e09	-0.05373958
54	0x3d63d94e	0.05562716
55	0x3b3a2477	0.0028403082
56	0x3d5b6120	0.053559422
57	0x3d9125ce	0.07087289
58	0x3d379c74	0.04482694
59	0xbdd3a4a3	-0.10334136
60	0xbd1b63ec	-0.03793709
61	0x3df24e51	0.11831344
62	0xbd29bca0	-0.041439652
63	0xbe006a94	-0.12540656
64	0xbc834ed7	-0.016028805
65	0xbdda3940	-0.10655451
66	0x3d654cde	0.05598151
67	0x3c7f62a5	0.0155874835
68	0xb999a2cc	-0.00029303727
69	0x3cafbbf6	0.021451931
70	0x3d4952cc	0.049151227
71	0xbcc922b4	-0.02455268
72	0xbdb2b97a	-0.08726783
73	0x3d2e2a06	0.042520545
74	0x3d7eb04c	0.06217985

encoder.out.weight f4 [5, 75]
0	0xbca3793c	-0.01995527
1	0xbdeb190c	-0.11479387
2	0xbdcdf759	-0.100569434
3	0x3e11cd12	0.14238384
4	0x3d8208a7	0.063493066
5	0xbdf3e2c2	-0.11908485
6	0xbe0b46a3	-0.13601165
7	0x3d545ba2	0.0518452
8	0xbd4b7cf5	-0.049679715
9	0xbde78366	-0.11304359
10	0x3d4534d7	0.048146095
11	0x3d644174	0.055726483
12	0x3dbe50a7	0.09292727
13	0x3d539fd0	0.05166608
14	0x3de0db00	0.10979271
15	0x3d60d910	0.054894507
16	0x3cf7c9d0	0.030247599
17	0x3b2792c0	0.0025569648
18	0xbd540532	-0.051762767
19	0xbc8ce43f	-0.01719868
20	0x3e1b5e83	0.15172772
21	0xbddeee56	-0.10885303
22	0xbbf90580	-0.0075995326
23	0xbda08136	-0.07837145
24	0x3d8c7b12	0.06859411
25	0x3d8e274c	0.06941089
26	0xbd073306	-0.033007644
27	0xbd8c24fc	-0.06842992
28	0xbd4e75be	-0.050405256
29	0xbe12712d	-0.14300986
30	0xbd65d051	-0.05610687
31	0xbdd86ffe	-0.10568236
32	0xbb8ba37b	-0.0042614317
33	0x3d7ecfeb	0.062210005
34	0xbd744f37	-0.059645858
35	0x3d065154	0.032792404
36	0x3c1d4d39	0.009600931
37	0xbdd91ba4	-0.10600975
38	0x3e0386ae	0.12844345
39	0xbde80360	-0.11328769
40	0x3d8e16bd	0.06937931
41	0x3d9edae3	0.07756593
42	0xbd2ec53f	-0.042668577
43	0xbc427980	-0.011869788
44	0xbd6de517	-0.058079805
45	0x3d063a80	0.032770634
46	0xbd3d5357	-0.046222057
47	0xbe046242	-0.12928107
48	0x3d934f45	0.07192854
49	0xbd85c9a2	-0.06532599
50	0x3df062d3	0.11737599
51	0xbdad10cc	-0.084504694
52	0x3b8411cd	0.0040304423
53	0x3dc168aa	0.09443791
54	0xbdf7f1d7	-0.12106674
55	0xbd758d69	-0.059949312
56	0xbde953f7	-0.11392968
57	0x3bf6a03e	0.0075264266
58	0x3de8b894	0.113633305
59	0xbd883f58	-0.06652707
60	0x3bbc1740	0.0057400763
61	0xbdaf1e71	-0.08550728
62	0xbd5b602f	-0.053558525
63	0xbceb2ad9	-0.028706955
64	0xbd6b22b3	-0.05740614
65	0xbc21fd58	-0.009887062
66	0xbd934602	-0.07191087
67	0x3e171640	0.14754581
68	0x3e182a8e	0.14859983
69	0x3da03714	0.07823005
70	0xbd34c3d6	-0.044132076
71	0x3d7e9a53	0.062158894
72	0xbd8453a3	-0.06461265
73	0x3d7267e2	0.0591811
74	0x3d8f0354	0.06983057
75	0x3d034a98	0.03205356
76	0xbde958c2	-0.11393882
77	0xbd2affea	-0.041747965
78	0x3d09f770	0.03368324
79	0xbdcdd9f6	-0.100513384
80	0xbd099953	-0.033593487
81	0x3dc8809b	0.097901545
82	0xbc729732	-0.014806556
83	0x3d850da6	0.06496744
84	0x3bd98c90	0.006639071
85	0xbc92992c	-0.017895304
86	0xbc4237b8	-0.011854105
87	0x3ce55902	0.027996544
88	0xbd100f58	-0.035170883
89	0xbddd13a2	-0.1079476
90	0xbd8d3299	-0.06894416
91	0xbd58f82b	-0.052971046
92	0xbccb2fbc	-0.024803035
93	0x3d8beac4	0.06831887
94	0x3ade276d	0.0016949006
95	0x3c184ff9	0.009296411
96	0xbdb2676c	-0.087111324
97	0x3d8a933e	0.067663655
98	0x3d47f1d8	0.048814625
99	0xbdd27058	-0.10275334
100	0xbda4a731	-0.08039702
101	0xbe6186e7	-0.22024117
102	0x3d2854dc	0.041096553
103	0x3b8df110	0.0043317154
104	0x3d7c599c	0.061608896
105	0x3d583805	0.0527878
106	0xbd2bd5be	-0.041951887
107	0x3ce78f10	0.02826646
108	0xbe016b68	-0.12638628
109	0x3db30ff0	0.08743274
110	0xb9e81808	-0.00044268393
111	0xbd2527e6	-0.040321253
112	0x3cc2fc20	0.023801863
113	0x3d517cb3	0.051144313
114	0x3d860ea2	0.0654576
115	0xbdcf7a49	-0.10130746
116	0xbdbf69ef	-0.09346377
117	0x3dc65242	0.09683658
118	0xbd06b91a	-0.03289137
119	0xbda66a12	-0.081257
120	0xbdb264d8	-0.08710641
121	0x3dd6bb7b	0.10484978
122	0xbd5b2eea	-0.053511538
123	0xbccd28ac	-0.025043808
124	0x3dcc8cdf	0.099878065
125	0xbd654067	-0.055969622
126	0x3ceddd2c	0.029036127
127	0x3c8ba049	0.017044203
128	0x3e2e57ec	0.17025727
129	0x3cd20efc	0.02564191
130	0xbd895c97	-0.06707113
131	0x3ddc099a	0.10744019
132	0xbd0d9f97	-0.034576025
133	0x3dca4625	0.0987666
134	0xbc9cd144	-0.019142754
135	0xbd3bad78	-0.04581973
136	0x3baa9ba4	0.005206542
137	0xbdbb5ed3	-0.09148946
138	0x3e28c87b	0.16482727
139	0xbcc9cb2b	-0.02463301
140	0xbca029ec	-0.01955124
141	0x3d008b1d	0.03138267
142	0xbd9c8eda	-0.07644434
143	0xbcd967b8	-0.026538715
144	0x3d946940	0.07246637
145	0x3d91b81a	0.07115193
146	0x3d8b7d76	0.06811039
147	0xbdc8a277	-0.09796613
148	0xbdd50615	-0.10401551
149	0x3c7b8560	0.015351623
150	0x3d4bf810	0.049797118
151	0x3dde2656	0.10847156
152	0x3cf20707	0.029544367
153	0x3da8a987	0.0823546
154	0x3cb28435	0.021791557
155	0xbe41a048	-0.18908799
156	0x3dccc25f	0.09998011
157	0x3dd3cf8a	0.10342319
158	0xbd1767fa	-0.036964394
159	0x3d71d940	0.059045076
160	0xbd88fcfe	-0.066888794
161	0xbd97fc3e	-0.07421158
162	0x3de5e7b6	0.11225836
163	0xbc0d2900	-0.008615732
164	0xbd9b13d2	-0.0757214
165	0xbd9f2ecc	-0.07772598
166	0xbd868711	-0.065687306
167	0x3d346ac0	0.044047117
168	0x3dae6aea	0.08516486
169	0xbc33b29e	-0.010967879
170	0xbd78ec62	-0.060772307
171	0x3dcdff8a	0.10058506
172	0xbda6323e	-0.08115052
173	0x3dc09062	0.09402539
174	0x3dd88d68	0.10573846
175	0xbd292bc9	-0.041301522
176	0xbe979822	-0.29608256
177	0x3de27493	0.11057391
178	0xbd1225dc	-0.035680637
179	0xbdb363c7	-0.087592654
180	0xbd8e51ea	-0.069492176
181	0xbd600601	-0.054693226
182	0x3ddb1a73	0.10698404
183	0xbdb59944	-0.08867124
184	0x3dc48d1c	0.09597227
185	0x3c3cb60a	0.011518011
186	0x3d8a335c	0.06748077
187	0x3c2c7ae0	0.010527343
188	0x3e0a31ef	0.1349561
189	0xbdd0ad3b	-0.10189291
190	0x3e07aa60	0.13248587
191	0xbd67436a	-0.056460775
192	0x3d5331d2	0.051561184
193	0xbde3ba9d	-0.11119578
194	0xbda1ea47	-0.07906013
195	0x3d9682bc	0.07349154
196	0x3d59d611	0.053182665
197	0x3d725390	0.059161723
198	0x3d856eb0	0.065152526
199	0x3dbb5f40	0.09149027
200	0xbce95522	-0.028482977
201	0xbdaef3f8	-0.08542627
202	0x3c421de2	0.011847945
203	0x3e06b286	0.13154039
204	0x3e1610d7	0.14654861
205	0xbd8ecb4d	-0.0697237
206	0x3d2afad8	0.04174313
207	0xbd784899	-0.06061611
208	0xbc2c2aab	-0.01050822
209	0xbd4f558a	-0.050618686
210	0x3dd49a3c	0.1038098
211	0x3d564c54	0.052318886
212	0xbd9abdff	-0.0755577
213	0x3da561d9	0.080753036
214	0x3d211f8c	0.039336726
215	0x3dbef7d0	0.0932461
216	0xbc57687c	-0.01314747
217	0xbd9fba2a	-0.0779918
218	0x3b2a7118	0.002600735
219	0x3cbf87b8	0.023380145
220	0x3d0d2924	0.034463063
221	0x3dac9e87	0.08428674
222	0xbd59abb6	-0.053142272
223	0xbd2b5c86	-0.041836284
224	0x3dcc875e	0.09986757
225	0xbd31b75c	-0.043387756
226	0x3d6272e8	0.055285364
227	0xbdac9cbd	-0.08428333
228	0xbbd76548	-0.006573353
229	0x3e0646f4	0.13113004
230	0xbdcfb3c2	-0.10141708
231	0xbd058c9a	-0.03260479
232	0x3db173b3	0.08664646
233	0xbd2f4371	-0.042788927
234	0x3d098e0c	0.033582732
235	0xbd7f7cc9	-0.062374864
236	0xbdeb8ed7	-0.11501854
237	0x3deaa50e	0.11457263
238	0xbc00f430	-0.007870719
239	0x3c9ef755	0.019405046
240	0x3d07b4b3	0.033131313
241	0xbdd46645	-0.10371069
242	0x3de5d878	0.11222929
243	0x3dc8013e	0.09765862
244	0x3dd635d6	0.10459487
245	0xbdc0e6e9	-0.094190426
246	0xbd898265	-0.06714324
247	0xbd701ebe	-0.058623068
248	0x3b7bddc0	0.0038431734
249	0x3dd11288	0.10208613
250	0xbd385b15	-0.045008738
251	0xbd985dce	-0.07439767
252	0x3d6822e6	0.056673907
253	0xbddca653	-0.10773911
254	0x3dcac92e	0.09901653
255	0x3dd466dd	0.10371182

encoder.out.bias f4 [5]
0	0x3da14552	0.0787455
1	0x3cdb3bc2	0.026761893
2	0x3c8a6f33	0.016898727
3	0x3d2418d1	0.04006273
4	0x3d245b58	0.040126175

decoder.mlp.0.weight f4 [75, 5]
0	0xbedbd968	-0.42939305
1	0xbea4c2b2	-0.3217979
2	0x3e6e9356	0.23298392
3	0x3e3ce80e	0.18447897
4	0xbd493082	-0.049118526
5	0xbec57f52	-0.385737
6	0xbda41cac	-0.08013281
7	0x3d3db8c7	0.046318796
8	0x3c659197	0.014011762
9	0x3ebed0f7	0.37268803
10	0x3eb59cdb	0.35471234
11	0x3efc605e	0.49292272
12	0x3e64a24a	0.22327533
13	0xbe7cc198	-0.24683225
14	0xbe378c56	-0.17924628
15	0xbefd9a8c	-0.49531972
16	0x3e9c60d8	0.30542636
17	0x3edc7c6f	0.43063685
18	0xbddcc310	-0.10779393
19	0xbd5e5350	-0.05427867
20	0x3e324347	0.17408477
21	0xbdb43a57	-0.0880019
22	0x3e6ab794	0.22921592
23	0x3e5f37ae	0.21798584
24	0x3d24d9b5	0.040246684
25	0x3f150a82	0.5821916
26	0x3eb21a12	0.34785515
27	0xbe6c9c3b	-0.23106472
28	0xbe2d9998	-0.16953123
29	0xbd6732a6	-0.056444786
30	0x3be28800	0.006913185
31	0xbd215bf0	-0.03939432
32	0xbe1f3114	-0.15546066
33	0xbd8e9668	-0.069622815
34	0xbdcf4860	-0.10121226
35	0x3c94a0e1	0.01814312
36	0xbd8ea8e7	-0.06965809
37	0xbedcb813	-0.43109187
38	0xbe57c4bc	-0.21071142
39	0xbeab9dac	-0.33518732
40	0x3f027470	0.5095892
41	0xbea1ac96	-0.31576985
42	0x3e70b4fd	0.23506542
43	0x3cdbb382	0.026818994
44	0xbf3898b0	-0.7210798
45	0x3d7d16f9	0.061789487
46	0xbece0048	-0.4023459
47	0xbe6094bf	-0.21931742
48	0x3cc69558	0.024241135
49	0xbe81a9f7	-0.25324985
50	0x3eeb12d0	0.4591279
51	0x3e8f9d3d	0.2804965
52	0xbe1df3be	-0.15425012
53	0x3ea9d359	0.33169058
54	0x3c2ef54f	0.010678603
55	0x3f0e3781	0.5555344
56	0x3d6513fa	0.055927254
57	0xbda9b4c4	-0.082864314
58	0x3ef3a98d	0.47590294
59	0xbe84bc8f	-0.2592511
60	0x3eaad12b	0.33362707
61	0xbd9da2b9	-0.076970525
62	0x3f0708f2	0.52748024
63	0xbe1a74b5	-0.15083583
64	0x3d4702ff	0.04858684
65	0xbe2a3164	-0.16620404
66	0xbe832207	-0.25611898
67	0xbeb59df6	-0.35472077
68	0x3ef153d3	0.47134265
69	0xbd0a7878	-0.033806294
70	0x3ea7e0c3	0.32788667
71	0xbe956578	-0.29178977
72	0x3edbe3b7	0.4294717
73	0x3ede6f27	0.43444178
74	0x3d0c9b7b	0.034327965
75	0xbf03d7de	-0.5150126
76	0xbe9438c2	-0.28949553
77	0x3e89abc5	0.26888862
78	0xbd3f4c68	-0.046703726
79	0xbe579b7e	-0.2105541
80	0x3ec4527c	0.3834418
81	0x3e2fa6ec	0.1715352
82	0x3e8c6fea	0.27429134
83	0x3e9b8d3e	0.30381197
84	0xbe26b431	-0.16279675
85	0x3ea6d047	0.32580778
86	0x3e889957	0.2667949
87	0xbe96ec4d	-0.29477158
88	0x3e8cd8bd	0.27509108
89	0x3ef1cf93	0.4722868
90	0xbca3b2bd	-0.01998269
91	0x3eeee20d	0.46656838
92	0x3ee19f42	0.44066817
93	0xbebc2973	-0.36750373
94	0x3ee620ea	0.44946986
95	0xbed9a7fc	-0.42510974
96	0x3e577a4c	0.21042746
97	0xbe3f4384	-0.18678099
98	0xbe8bd9a8	-0.27314496
99	0x3ea8b160	0.32947826
100	0x3e8717ca	0.26385337
101	0xbeb68d33	-0.356546
102	0xbee0bb1d	-0.43892756
103	0xbe31bd58	-0.17357385
104	0xbed3b2a4	-0.4134723
105	0x3ed06b40	0.40706825
106	0x3e50dedc	0.20397514
107	0xbed5a9c0	-0.4173107
108	0xbeacafc1	-0.3372784
109	0xbead7731	-0.33879998
110	0x3efd52be	0.4947719
111	0xb9cc8fcf	-0.00039017058
112	0xbdcb795b	-0.09935256
113	0xbdcf61b8	-0.1012606
114	0x3dca455d	0.09876511
115	0xbdb3842c	-0.08765444
116	0x3e46bf27	0.19408856
117	0x3ebeb72e	0.3724913
118	0x3dedd637	0.11613124
119	0xbe0f94ce	-0.14021608
120	0x3e47c2b0	0.19507861
121	0xb8f9c000	-0.00011909008
122	0x3eabab10	0.33528948
123	0xbeb16c0a	-0.3465274
124	0xbd8d1428	-0.0688861
125	0x3dbea850	0.09309447
126	0xbed63504	-0.41837323
127	0x3ea49596	0.32145375
128	0xbeab7b8a	-0.3349269
129	0xbdb9bff8	-0.09069818
130	0xbd90a0ac	-0.07061896
131	0xbe9d92d6	-0.3077609
132	0xbec5e8c4	-0.3865415
133	0xbed8affa	-0.4232176
134	0x3bb4e1c0	0.0055200756
135	0xbe3ea8e6	-0.18619117
136	0xbe09ee01	-0.13469698
137	0x3e849f5c	0.25902832
138	0xbcc6fae6	-0.02428956
139	0x3b83976b	0.004015853
140	0xbdc06d78	-0.093958795
141	0x3e0ce264	0.13758236
142	0x3eb7fd98	0.35935664
143	0x3ec1379b	0.37737736
144	0x3ea3af15	0.31969514
145	0x3ecac8d5	0.39606348
146	0xbdb09616	-0.086223766
147	0xbe1a91c1	-0.15094663
148	0xbe0c0d45	-0.13676937
149	0x3deb07ee	0.11476122
150	0xbeb43d03	-0.35202798
151	0x3eaffb7f	0.34371564
152	0xbe8d2206	-0.2756502
153	0xbed59a07	-0.41719076
154	0x3e81c0b1	0.25342324
155	0x3eec967e	0.46208566
156	0xbd7860d8	-0.060639232
157	0x3d708f6d	0.05873053
158	0xbddababf	-0.1068015
159	0x3cffbca6	0.031217884
160	0xbe4feaf5	-0.20304473
161	0xbed47fdd	-0.41503802
162	0xbe0ffba8	-0.14060843
163	0x3c1f1d7e	0.009711621
164	0xbe36c7b2	-0.17849615
165	0x3e191480	0.14949226
166	0xbe688e4d	-0.22710533
167	0xb980bbd1	-0.00024553997
168	0x3ee526b7	0.447561
169	0xbeb23845	-0.34808555
170	0xbea369a2	-0.3191653
171	0xbd0f2900	-0.03495121
172	0xbe8d401c	-0.27587974
173	0xbed5e3a1	-0.4177523
174	0x3ed3a5fc	0.41337574
175	0x3e6c3523	0.23067145
176	0x3e90ff07	0.2831957
177	0x3ec3ea61	0.38264754
178	0xbdb60bc5	-0.088889636
179	0xbed392be	-0.41322893
180	0x3edb25bf	0.42802235
181	0x3e99d39e	0.30044264
182	0x3d8e023d	0.06934021
183	0xbe32fe78	-0.17479885
184	0xbeae24d5	-0.34012476
185	0xbd37a007	-0.04483035
186	0x3e8dc92b	0.2769254
187	0x3dab9e21	0.0837977
188	0x3ec70fdd	0.3887929
189	0xbe9c6ddc	-0.30552566
190	0x3ed69234	0.4190842
191	0x3e6929f7	0.22769915
192	0xbec97761	-0.3934889
193	0x3d868429	0.06568176
194	0xbe96e488	-0.2947123
195	0xbe751510	-0.23933816
196	0x3e9172c6	0.28407878
197	0x3e7eb591	0.2487395
198	0x3ee988d4	0.45612204
199	0xbda8df07	-0.08245664
200	0xbe19f4da	-0.1503481
201	0x3e117574	0.14204961
202	0x3e2e6fc0	0.17034817
203	0xbed0a08f	-0.40747496
204	0x3e9098d8	0.2824161
205	0xbabcdb85	-0.0014408684
206	0xbec56759	-0.3855541
207	0xbecd1258	-0.40053058
208	0x3ebd2899	0.36945036
209	0x3e91a4a6	0.2844593
210	0x3e61f931	0.22067715
211	0x3e5f534e	0.21809122
212	0xbe2d301b	-0.16912882
213	0x3e542a76	0.20719323
214	0x3c5b378e	0.0133799445
215	0xbde8369a	-0.113385394
216	0xbeb79c39	-0.35861376
217	0x3e595166	0.21222457
218	0xbd5df834	-0.054191783
219	0xbe178f88	-0.14800847
220	0xbd1d00a8	-0.038330704
221	0xbe284d6c	-0.16435784
222	0xbeb3b135	-0.35096136
223	0x3d849cf8	0.06475252
224	0x3eae627c	0.34059513
225	0xbedb845e	-0.42874426
226	0x3e8906ae	0.2676291
227	0x3e860188	0.26173043
228	0x3baf6f07	0.0053538117
229	0x3e25b730	0.16183162
230	0xbead4b6c	-0.33846605
231	0x3e68e492	0.22743443
232	0x3ed2fb63	0.41207418
233	0x3e46f412	0.19429043
234	0x3ec621b6	0.38697594
235	0xbe294f8d	-0.16534252
236	0x3ed7ea58	0.42170978
237	0x3e8dbec6	0.2768461
238	0x3e492209	0.1964189
239	0xbdd4d516	-0.103922054
240	0x3eca846a	0.3955415
241	0xbe25c5bb	-0.1618871
242	0x3eee9bf1	0.4660335
243	0xbe3f3da7	-0.18675862
244	0xbe62648c	-0.22108668
245	0xbe25996e	-0.1617181
246	0x3e38dafc	0.18052286
247	0x3e8437c8	0.25823808
248	0xbee1a2a5	-0.440694
249	0x3e692da8	0.22771323
250	0xbd2159e0	-0.039392352
251	0xbcdb4ec0	-0.02677095
252	0x3eb15b92	0.34640175
253	0xbe9bfd3c	-0.3046664
254	0xbe671f7a	-0.22570601
255	0xbc5242e0	-0.012833327

decoder.mlp.0.bias f4 [75]
0	0x3b8a5cf3	0.004222506
1	0x3ebf23ee	0.373321
2	0x3e374c8c	0.17900294
3	0x3e2d2ea3	0.16912322
4	0x3ea48412	0.32132012
5	0x3d8ca2db	0.06867
6	0xbe2b435e	-0.16724917
7	0x3d284b94	0.041087702
8	0xbe14facd	-0.14548798
9	0x3d38f5d6	0.045156322
10	0xbde16e6a	-0.11007388
11	0xbe5a5682	-0.21322063
12	0xbdc3f18b	-0.09567555
13	0x3d6b21c7	0.05740526
14	0xbe067f0c	-0.13134402
15	0x3dda033d	0.10645149
16	0xbebab8fc	-0.36469257
17	0x3eedcfcc	0.464476
18	0x3e138fe0	0.14410353
19	0xbe46927e	-0.1939182
20	0xbeca7fe2	-0.39550692
21	0xbe90698c	-0.28205526
22	0x3e2ed291	0.17072512
23	0x3e1bcd32	0.15214995
24	0xbec296da	-0.38005716
25	0xbe8dffb0	-0.27734137
26	0xbea624c6	-0.3244993
27	0x3ec14654	0.3774897
28	0x3e491352	0.19636276
29	0x3dcbc17c	0.099490136
30	0x3ea6230b	0.3244861
31	0x3d8c860f	0.06861507
32	0x3ecfa79c	0.40557563
33	0x3d88356f	0.06650817
34	0xbea73586	-0.32658023
35	0x3ee2999d	0.44257823
36	0x3d521b5a	0.051295616
37	0xbd59b4a6	-0.053150795
38	0x3e3eaed2	0.18621376
39	0xbcc6db5c	-0.02427452
40	0xbe5e09a8	-0.21683371
41	0x3e9f97ec	0.31170595
42	0x3d8a80a7	0.0676282
43	0x3dd5b2a7	0.10434466
44	0xbede8a24	-0.43464768
45	0x3cb850d8	0.022499487
46	0xbdc005aa	-0.0937608
47	0xbe75575c	-0.23959106
48	0x3dfaee93	0.12252536
49	0xbeb394bd	-0.35074416
50	0xbe286234	-0.16443712
51	0xbd5438a0	-0.051811814
52	0x3d425861	0.047447566
53	0x3dc909bb	0.09816309
54	0xbe33bdae	-0.17552826
55	0x3e60b239	0.21942987
56	0xbe687371	-0.22700287
57	0x3c3fc677	0.011705033
58	0x3e5fc280	0.2185154
59	0xbdddd13f	-0.10830926
60	0xbe9263b9	-0.28591707
61	0x3d2f56d5	0.04280742
62	0xbd9f15e0	-0.07767844
63	0x3c093b31	0.008375929
64	0x3d87a0ed	0.06622491
65	0x3d3a678b	0.045508903
66	0xbe9f5dfd	-0.31126395
67	0xbde0709a	-0.10958977
68	0xbea21b04	-0.31661236
69	0xbe878e11	-0.26475576
70	0x3dbe9abe	0.093068585
71	0x3eb71cfe	0.35764307
72	0x3d4a738c	0.0494266
73	0x3e9e924d	0.30970994
74	0xbedd89e1	-0.43269256

decoder.mlp.2.weight f4 [75, 75]
0	0x3bb150cd	0.0054112435
1	0xbcd21d36	-0.025648694
2	0x3cd31958	0.02576892
3	0x3df2cf88	0.1185599
4	0xbd8e2d5a	-0.06942244
5	0x3d95193f	0.07280206
6	0x3ddfdc9a	0.10930748
7	0xbde54680	-0.111950874
8	0xbac3af13	-0.0014929496
9	0xbd8d4f4f	-0.068998925
10	0x3e019e26	0.12657985
11	0xbdc29230	-0.09500539
12	0x3e0ebe53	0.1393979
13	0xbce556a4	-0.027995415
14	0xbd66efce	-0.05638104
15	0xbe2aee3b	-0.1669244
16	0x3dce33d7	0.100684814
17	0xbde34ffb	-0.110992394
18	0x3d226092	0.039642878
19	0xbdba49c0	-0.09096098
20	0xbd9c310a	-0.07626541
21	0xbd854f4e	-0.06509267
22	0xbda83f59	-0.082152076
23	0x3dde90cb	0.10867461
24	0xbda8defc	-0.08245656
25	0x3d281c30	0.041042507
26	0x3d9dde9c	0.07708475
27	0x3c699219	0.014256024
28	0x3da04910	0.078264356
29	0xbd491cb6	-0.049099647
30	0x3d941e7d	0.07232378
31	0x3d16fdd3	0.03686316
32	0xbd119f81	-0.035552505
33	0x3dd7f0e0	0.1054399
34	0x3de30fa0	0.110869646
35	0x3d69a7f7	0.05704495
36	0xbd60b908	-0.05486396
37	0x3d67f183	0.056626808
38	0xbda9bf61	-0.08288456
39	0xbcbcaa7b	-0.02303051
40	0xbd6795c3	-0.05653931
41	0xbdf4cec0	-0.11953497
42	0xbd8003a4	-0.062506944
43	0x3cdb4f39	0.026771175
44	0xbd808e5c	-0.06277153
45	0xbd3da3e0	-0.04629886
46	0x3cd4eb1e	0.025991019
47	0x3dec0e70	0.11526191
48	0x3d606246	0.05478122
49	0xbd771248	-0.06032017
50	0x3c717860	0.014738172
51	0x3d067d5c	0.032834396
52	0x3d6ce272	0.057833143
53	0x3ce7b68c	0.028285287
54	0x3defdb01	0.117116936
55	0x3dac2d44	0.08407071
56	0x3c6c3c30	0.014418647
57	0xbdd54c37	-0.104149275
58	0xbd54fb9a	-0.05199776
59	0xbe62cfcb	-0.22149579
60	0xbda6f00e	-0.081512555
61	0xbc9c2825	-0.019062111
62	0xbdf39a0f	-0.11894619
63	0x3db98f20	0.09060502
64	0xbde89693	-0.11356845
65	0xbd4525c2	-0.04813171
66	0x3ce33700	0.027736187
67	0xbd258b66	-0.040416144
68	0xbbca79b0	-0.006179057
69	0x3bf9fbab	0.007628878
70	0x3e0a4164	0.13501507
71	0xbddebb00	-0.10875511
72	0x3dd08f5e	0.10183595
73	0xbbf3be3a	-0.0074384483
74	0xbdc69b8d	-0.09697638
75	0x3e2c8298	0.16846693
76	0x3dff78c8	0.12474209
77	0xbd75d169	-0.060014162
78	0x3d86592e	0.065599784
79	0x3c8da25a	0.01728933
80	0xbe417a5b	-0.18894331
81	0x3da0fb0e	0.07860385
82	0xbddafd65	-0.106928624
83	0x3d160a84	0.036631122
84	0x3d5a4c3c	0.05329536
85	0xbd85ec34	-0.06539193
86	0x3bf85460	0.0075784177
87	0xbe32a1b7	-0.17444502
88	0x3dc6af22	0.09701373
89	0x3d7f487b	0.062324982
90	0x3e487e29	0.19579376
91	0x3bff3a8b	0.0077889613
92	0xbc3d3590	-0.011548415
93	0x3dc18254	0.09448686
94	0x3b79d840	0.003812328
95	0x3db138c6	0.08653407
96	0x3d96fad2	0.07372059
97	0xbbbd1306	-0.00577009
98	0xbd209e7d	-0.039213646
99	0xbdcb4139	-0.099245496
100	0x3c088b60	0.008334011
101	0x3d93deae	0.07220207
102	0x3dbfb683	0.09360983
103	0x3dd51f8e	0.10406409
104	0xbd97e749	-0.07417161
105	0xbd8e1bec	-0.069389194
106	0x3d3d1a3c	0.046167597
107	0xbd0d4308	-0.034487754
108	0xbd29d169	-0.041459475
109	0x3d35b3c0	0.044360876
110	0x3e0d52c1	0.138011
111	0x3e20ca33	0.15702133
112	0xbd5559e4	-0.05208768
113	0xbdc617d0	-0.096725106
114	0xbd10059e	-0.035161607
115	0x3cd00100	0.025391102
116	0x3d50ca31	0.050974075
117	0x3c3f98b3	0.011694121
118	0xbda586e3	-0.08082368
119	0xbdc16630	-0.09443319
120	0x3e19d94b	0.15024297
121	0xbd0840cc	-0.03326492
122	0x3e1f3fd7	0.15551697
123	0x3d1e1d1a	0.038601972
124	0xbd6aa479	-0.05728576
125	0x3c9a9368	0.018869117
126	0xbc130798	-0.008973978
127	0xbdacb653	-0.08433213
128	0x3cb5c447	0.022188319
129	0xb981348b	-0.00024643945
130	0x3d597ca7	0.053097393
131	0x3d81b1b4	0.06332722
132	0x3c91dbbd	0.017804975
133	0x3db71371	0.08939255
134	0x3e70a55f	0.23500584
135	0xbcad320d	-0.02114203
136	0xbce60871	-0.028080197
137	0xbb6ce5da	-0.0036147744
138	0x3c0b854f	0.00851567
139	0xbd18c719	-0.03729925
140	0x3e5a5613	0.21321897
141	0x3da211f0	0.079135776
142	0x3df769a3	0.120806955
143	0xbdc09d36	-0.094049856
144	0xbc59c0cf	-0.013290598
145	0x3c85a068	0.01631184
146	0xbd8a0957	-0.06740063
147	0x3ddc8df0	0.1076926
148	0x3db1199e	0.08647464
149	0xbd76869b	-0.060186964
150	0xbc67b250	-0.014141634
151	0x3d3e5040	0.04646325
152	0x3d8e7205	0.06955341
153	0xbd47be28	-0.04876533
154	0x3da95604	0.08268359
155	0xbe1267c1	-0.14297391
156	0x3dc46f50	0.09591544
157	0xbd52939d	-0.051410306
158	0x3eb04c02	0.3443299
159	0x3d339aca	0.04384879
160	0x3da6334e	0.08115254
161	0xbe110217	-0.14160953
162	0xbe408ba5	-0.1880327
163	0xbd723e7a	-0.059141614
164	0x3d4fd569	0.050740633
165	0x3e712b46	0.23551664
166	0xbc214994	-0.009844203
167	0x3d781f28	0.060576588
168	0x3dae6392	0.08515085
169	0x3d013268	0.03154221
170	0xbde507bf	-0.11183118
171	0xbd345b74	-0.04403253
172	0x3d911d42	0.070856586
173	0xbd1d117d	-0.038346756
174	0xbdb69eb8	-0.08916992
175	0xbd77fbca	-0.06054286
176	0xbdb30eb8	-0.08743042
177	0xbc94cc9c	-0.018163972
178	0x3d489bcd	0.04897671
179	0xbd9fe26b	-0.07806858
180	0xbda97476	-0.08274166
181	0xbd8b4de9	-0.068019696
182	0xbc7bf88f	-0.015379085
183	0xbd887456	-0.06662814
184	0x3920aa00	0.00015322119
185	0xbc03cfc9	-0.008045145
186	0x3e270cc1	0.16313459
187	0x3cdaeb48	0.026723519
188	0x3d152e26	0.036420964
189	0x3d64a818	0.05582437
190	0x3d704644	0.05866076
191	0x3c3f67bc	0.011682447
192	0x3d2b7d1d	0.041867364
193	0xbd2b695d	-0.04184853
194	0xbba35ac0	-0.0049851835
195	0x3cf07de6	0.029356908
196	0x3e0b81b2	0.13623694
197	0x3e283fce	0.1643059
198	0x3b9bfe66	0.0047605513
199	0x3db70212	0.08935942
200	0x3dad4eb0	0.08462274
201	0x3c7a7550	0.015286759
202	0x3cb2d2d0	0.021829039
203	0x3ce550ea	0.027992684
204	0x3ddb409d	0.107056834
205	0xbcd0f9d6	-0.025509756
206	0xbd964e1a	-0.073391154
207	0x3e66d9c9	0.22544016
208	0x3d573cf9	0.052548382
209	0x3e911d83	0.28342828
210	0xbe496a92	-0.1966956
211	0xbc0e95fc	-0.008702751
212	0x3d2f61a2	0.04281772
213	0xbd8c6ffd	-0.068572976
214	0x3d9c4013	0.07629409
215	0x3dd7b2f3	0.10532179
216	0xbcc621f4	-0.024186112
217	0xbd91cc79	-0.07119078
218	0xbbfef150	-0.0077802315
219	0xbc99917b	-0.018746128
220	0xbd500824	-0.050789014
221	0x3db56209	0.08856589
222	0x3df16b3f	0.11788034
223	0x3ca88ea1	0.020575823
224	0x3dd61c6c	0.1045464
225	0xbdd28d29	-0.102808304
226	0xbdac6992	-0.084185734
227	0x3df8395a	0.12120314
228	0xbbeea779	-0.007283148
229	0xbdcc9b2b	-0.099905334
230	0xbc248fa7	-0.010044015
231	0xbc91b9c8	-0.017788783
232	0xbd35c1d0	-0.044374287
233	0x3dc4c38f	0.09607612
234	0xbe0d3c1b	-0.1379246
235	0x3d8a0007	0.067382865
236	0x3d78c3d0	0.060733616
237	0x3e0b2a9b	0.13590471
238	0xbb24726c	-0.0025092615
239	0xbd2bce8c	-0.041945025
240	0x3e18e7ed	0.14932223
241	0xbd27e3d3	-0.040988754
242	0xbd57425d	-0.052553523
243	0xbe02a104	-0.12756735
244	0xbdd2b65e	-0.1028869
245	0x3d19ca08	0.037546188
246	0x3dd29c9c	0.10283777
247	0x3dd92e97	0.106045894
248	0x3dd7a8d4	0.10530248
249	0xbdd01b19	-0.101614185
250	0xbdb5c9b3	-0.08876362
251	0x3d8ca12a	0.06866677
252	0xbd62c6f8	-0.055365533
253	0x3dca16b6	0.09867613
254	0x3d04889b	0.03235684
255	0x3e3a4521	0.18190433

decoder.mlp.2.bias f4 [75]
0	0x3dd05e4a	0.10174234
1	0x3d9a2e71	0.07528389
2	0x3d7a79e3	0.061151396
3	0x3d0cb470	0.034351766
4	0xbd3173c4	-0.043323293
5	0xbdaeb159	-0.0852992
6	0x3d8441ce	0.06457864
7	0x3d902b52	0.07039513
8	0xbde1abc6	-0.11019091
9	0x3cf27631	0.029597374
10	0x3cd912ea	0.026498277
11	0xbdad5063	-0.08462598
12	0x3d7baf74	0.061446622
13	0xbcb8e51a	-0.022570182
14	0x3d072db6	0.033002578
15	0x3cce869f	0.025210677
16	0xbc8201bf	-0.015869973
17	0xbda15c20	-0.078788996
18	0xbb4722bc	-0.0030385694
19	0xbd250279	-0.04028556
20	0x3de7cb26	0.11318044
21	0x3d54f22a	0.05198876
22	0x3ccc0bb0	0.024907917
23	0xbda58b83	-0.080832504
24	0xbdb33db9	-0.08752007
25	0x3d42a9d4	0.047525242
26	0x3dd0f6c9	0.102033205
27	0x3c59ac60	0.013285726
28	0xbdc166cc	-0.09443435
29	0x3cf0fe14	0.029418029
30	0x3de35aa3	0.11101272
31	0x3d7a80c7	0.061157968
32	0x3da874f8	0.08225435
33	0xbd8ba794	-0.06819072
34	0x3d11c2b6	0.03558608
35	0x3c6a96ea	0.014318207
36	0xbdc1a49b	-0.09455224
37	0x3be731b8	0.0070554875
38	0xbd95dc02	-0.07317354
39	0x3c4ee6af	0.012628241
40	0x3be36a80	0.006940186
41	0x3c9d48c1	0.01919973
42	0xbce0ca2c	-0.027440153
43	0xbdbd3b56	-0.09239833
44	0xbde6c297	-0.11267584
45	0x3b467641	0.0030282887
46	0x3ca48c09	0.020086305
47	0xbd65dffd	-0.056121815
48	0xbded7eea	-0.115964726
49	0xbd894b3a	-0.067038015
50	0x3ca2cf65	0.019874284
51	0x3e10483f	0.1409006
52	0x3e00638b	0.12537973
53	0xbd85dbf2	-0.06536092
54	0xbd9f4bd0	-0.07778132
55	0x3d991806	0.07475285
56	0xbc00a57a	-0.007851953
57	0x3b29b116	0.0025892905
58	0x3dc66cfc	0.09688756
59	0xbda83a5b	-0.082142554
60	0xbd46d08d	-0.048538733
61	0xbbfc7e42	-0.007705481
62	0xbd5d5812	-0.05403907
63	0x3dbfaf51	0.09359611
64	0xbd774555	-0.060368855
65	0x3d31d196	0.043412767
66	0xbdc127eb	-0.09431442
67	0xb8f58fdf	-0.000117093085
68	0xbb7aeef0	-0.003828939
69	0x3cdda4a1	0.02705604
70	0x3d233f34	0.039855197
71	0x3cd12c8a	0.025533933
72	0x3bd2a8f0	0.0064288303
73	0xbda5f63a	-0.081036046
74	0xbc26c148	-0.010177918

decoder.out.weight f4 [3, 75]
0	0xbdb2e88c	-0.08735761
1	0x3de8b260	0.11362147
2	0x3decf539	0.1157021
3	0x3dbcef57	0.09225338
4	0x3d1f83d4	0.03894408
5	0xbc7290d8	-0.014805041
6	0x3db270ed	0.08712945
7	0xbdcb500e	-0.099273786
8	0xbcf516f0	-0.029918164
9	0xbdcb9c4e	-0.09941922
10	0xbc81580d	-0.015789056
11	0xbd194d23	-0.03742708
12	0xbd74e0b2	-0.0597846
13	0xbdddecd0	-0.10836184
14	0xbd178044	-0.036987558
15	0xbdcc0cd4	-0.09963384
16	0x3e094b6e	0.1340768
17	0xbda7e8c0	-0.081986904
18	0x3cf62a90	0.030049592
19	0xbe4c58e0	-0.19955778
20	0x3d2906af	0.04126614
21	0xbda84cdb	-0.08217784
22	0x3df8fc8d	0.12157545
23	0x3dd03316	0.10165994
24	0x3d9684cc	0.07349548
25	0x3d880410	0.066414
26	0x3dfe1545	0.124064006
27	0x3dc6772e	0.096907005
28	0xbda2d156	-0.07950084
29	0xbd7a876a	-0.061164297
30	0x3d0e99d6	0.034814678
31	0x3d990b1b	0.07472821
32	0xbda70c14	-0.081566006
33	0xbdd2bb1d	-0.10289595
34	0x3d5668e7	0.052346136
35	0x3dcd381f	0.1002047
36	0xbd16684c	-0.03672056
37	0xbe0e17f4	-0.13876325
38	0xbc8da010	-0.017288238
39	0xbde9ae1e	-0.11410163
40	0x3c137ac9	0.009001442
41	0x3e0c3052	0.13690308
42	0xbd202bfe	-0.039104454
43	0x3d48c446	0.049015306
44	0xbe5379ed	-0.2065198
45	0x3db8fef6	0.09033005
46	0xbe298460	-0.16554403
47	0x3dc662c0	0.09686804
48	0x3d528184	0.051393047
49	0xbcc166fc	-0.023608677
50	0xbd8396cb	-0.06425246
51	0x3e1c148f	0.15242217
52	0x3e16df4f	0.14733623
53	0xbdb675fd	-0.08909223
54	0x3db43224	0.08798626
55	0xbd0785eb	-0.0330867
56	0xbd5ebfcf	-0.05438214
57	0xbc458b37	-0.012057117
58	0xbd98b597	-0.074565105
59	0xbdc3d3b6	-0.09561865
60	0x3d1fe7a3	0.039039265
61	0xbd8c39b1	-0.06846941
62	0xbd15556c	-0.036458418
63	0xbdc8475f	-0.09779238
64	0x3d6af768	0.05736485
65	0xbc6b04cf	-0.014344408
66	0xbdc1c37a	-0.09461112
67	0xbd22c309	-0.03973678
68	0xbd0ef827	-0.034904625
69	0xba5cb779	-0.00084196735
70	0x3e13a278	0.14417446
71	0xbc5324c0	-0.01288718
72	0xbe45baef	-0.19309591
73	0x3e0e3b76	0.1388987
74	0xbb9c7f68	-0.00477593
75	0xbda34153	-0.07971444
76	0x3dc66dcd	0.096889116
77	0x3dd0a76b	0.101881824
78	0xbe5b1858	-0.21396005
79	0x3d71b9dc	0.05901514
80	0x3d8aea7c	0.067830056
81	0x3d73c4bc	0.059513792
82	0x3d06eae0	0.032938838
83	0xbdae137b	-0.08499809
84	0x3bccf795	0.0062551
85	0xbd608c51	-0.054821316
86	0xbdf4ddec	-0.11956391
87	0x3d5ee70a	0.054419555
88	0xbd69b1f8	-0.05705449
89	0xbe0d850a	-0.13820282
90	0xbd44d857	-0.04805788
91	0x3d8b6fc8	0.0680843
92	0xbde08965	-0.10963706
93	0xbdcaef6b	-0.099089466
94	0x3c518762	0.012788625
95	0x3dc4f759	0.0961749
96	0x3dcd6a5f	0.10030054
97	0xbc946205	-0.018113146
98	0x3d9b9281	0.07596303
99	0x3e03b90f	0.12863563
100	0x3d611074	0.05494733
101	0x3e0cacd2	0.137378
102	0x3c39d7a0	0.011342913
103	0x3db25c5e	0.08709024
104	0xbe4d3758	-0.20040643
105	0x3e18a964	0.14908367
106	0x3df8ebb8	0.12154335
107	0xbdc40425	-0.09571103
108	0xbddfb086	-0.10922341
109	0x3cb301ee	0.021851506
110	0x3d3573c2	0.04429985
111	0xbd7cb40a	-0.061695136
112	0xbd4be6d7	-0.049780693
113	0x3dca6ce2	0.09884049
114	0xbd9caeed	-0.07650552
115	0x3d42417c	0.047425732
116	0x3dbf92b5	0.09354154
117	0xbba89610	-0.005144842
118	0xbde5656c	-0.11200985
119	0xbe7da13c	-0.24768537
120	0xbd4a7cca	-0.049435414
121	0x3d20c821	0.039253358
122	0x3da6a172	0.08136262
123	0xbe47c522	-0.19508794
124	0xbbb050d0	-0.0053807274
125	0xbe081891	-0.13290621
126	0xbc2a09bc	-0.010378297
127	0xbc10da4a	-0.008841107
128	0x3da07dce	0.07836495
129	0x3dbfad10	0.09359181
130	0xbde11a4f	-0.10991346
131	0xbd35c454	-0.044376686
132	0xbd889d24	-0.06670597
133	0xbdce80f7	-0.10083192
134	0x3a4d59cf	0.0007833512
135	0x3e488585	0.19582184
136	0xbdbad1e1	-0.091220625
137	0x3dcf3258	0.10117024
138	0xbd57cf5b	-0.052687984
139	0xbc642c98	-0.013926648
140	0x3d54b9b3	0.05193491
141	0xbd90705f	-0.07052683
142	0xbe0da5ee	-0.13832828
143	0xbdae673a	-0.08515783
144	0x3da32078	0.07965177
145	0xbd8470db	-0.06466838
146	0x3d0a2271	0.033724252
147	0xbc3ef89f	-0.011655956
148	0x3e90a1ff	0.28248593
149	0x3db49d7e	0.08819102
150	0x3d976fd6	0.07394378
151	0x3b254e76	0.0025223768
152	0x3da534b1	0.08066691
153	0x3cabe2bf	0.020982144
154	0xbdeb33e3	-0.11484506
155	0x3dac35c0	0.084086895
156	0x3d834b99	0.064109035
157	0xbd0ef944	-0.034905687
158	0x3dc4ddd0	0.0961262
159	0xbc954bc6	-0.018224608
160	0x3dd72b52	0.105063096
161	0x3cbc53eb	0.022989234
162	0xbca2bd0e	-0.019865539
163	0x3d1fe463	0.039036166
164	0xbdebcf94	-0.11514202
165	0x3e1bc9fb	0.15213768
166	0xbc2faa00	-0.0107216835
167	0xbd9de1ce	-0.077090845
168	0xbd1eed87	-0.038800742
169	0xbdf8c0b8	-0.12146133
170	0xbd8335ae	-0.06406723
171	0x3dc2b6fe	0.09507559
172	0x3d92f7c5	0.071761645
173	0x3da9683b	0.082718335
174	0x3e3c70d4	0.18402416
175	0xbdbd6f3c	-0.09249732
176	0x3d6e49e5	0.05817594
177	0xbdcfe876	-0.1015176
178	0x3e312825	0.1730047
179	0xbe5444fd	-0.20729442
180	0x3e1ede2f	0.15514444
181	0x3d95041c	0.072761744
182	0xbd84cd17	-0.0648443
183	0x3ce93308	0.028466716
184	0x3e0006f4	0.12502652
185	0xbcfb216e	-0.030655589
186	0x3d1a3b94	0.037654474
187	0xbdf7559e	-0.12076877
188	0xbd89889a	-0.06715508
189	0x3a133fa6	0.00056170893
190	0x3db576ea	0.08860572
191	0xbceceda5	-0.028921911
192	0x3dc35d56	0.09539287
193	0xbe136d96	-0.14397272
194	0xbe21ca50	-0.15799832
195	0x3c840987	0.016117824
196	0xbdfeda66	-0.12444
197	0x3df99f7f	0.121886246
198	0xbe8d48ab	-0.27594504
199	0x3dc05802	0.09391786
200	0xbe4be53b	-0.19911663
201	0x3db66738	0.08906406
202	0x3cca6cca	0.024710078
203	0xbdb72d9d	-0.08944247
204	0xbba3839a	-0.0049900534
205	0xbd8a3fc6	-0.06750445
206	0xbde8fb74	-0.11376086
207	0xbd4c93ea	-0.04994575
208	0xbde77606	-0.11301808
209	0x3d84146f	0.0644921
210	0x3c3ce09a	0.011528159
211	0x3bedd252	0.007257738
212	0xbdbb8c3b	-0.09157606
213	0x3da8a079	0.08233733
214	0xbdb362f4	-0.08759108
215	0xbd2329c9	-0.03983477
216	0x3ca4e33d	0.020127887
217	0xbe028bdf	-0.12748669
218	0xbdd8bc21	-0.10582758
219	0x3e1d2923	0.15347724
220	0x3d552eae	0.05204647
221	0x3ddc6626	0.10761671
222	0x3e673a71	0.22580887
223	0xbdf36d27	-0.118860535
224	0x3d96ca1b	0.07362767

decoder.out.bias f4 [3]
0	0xbd229182	-0.03968955
1	0x3d99a25d	0.075016715
2	0x3da58ea3	0.080838464
